distributed_DQN/CartPole-v0/best_model.pt (torch_old, 72742 bytes, 6 tensors)

module.fc1.0.weight f4 [256, 4]
0	0xbd23c35e	-0.03998124
1	0xbe0ca40f	-0.13734458
2	0xbeedff05	-0.46483627
3	0xbdd2fff0	-0.103027225
4	0x3e0992aa	0.13434854
5	0xbc4e1d56	-0.012580236
6	0xbeda895c	-0.42682922
7	0x3c339cb0	0.01096265
8	0xbeaa8f8d	-0.33312646
9	0x3e71a2c0	0.2359724
10	0x3e94c654	0.29057562
11	0x3df79c59	0.12090368
12	0xbd809c56	-0.06279819
13	0x3dd63287	0.10458856
14	0x3e1dfecc	0.15429229
15	0x3daad384	0.08341125
16	0xbe4ea219	-0.20179023
17	0x3ddde166	0.10834007
18	0x3eaecf4c	0.3414253
19	0x3e1cdeaf	0.15319322
20	0x3d11e0e2	0.035614856
21	0xbdaed1c1	-0.08536101
22	0x3e58f09b	0.21185534
23	0xbda25658	-0.07926625
24	0xbea45cff	-0.321022
25	0x3dc56dae	0.0964006
26	0x3bf1dd49	0.0073811156
27	0x3e02a859	0.12759532
28	0xbe282776	-0.16421303
29	0x3cf88964	0.03033895
30	0x3e805108	0.25061822
31	0x3c2720dc	0.010200705
32	0x3e65cc8d	0.22441311
33	0xbe522623	-0.2052236
34	0xbeccbb4f	-0.39986655
35	0xbe5ddaf3	-0.21665554
36	0x3e791b9e	0.24326941
37	0xbe0dec07	-0.13859569
38	0xbe495c36	-0.19664082
39	0x3e1f537a	0.15559188
40	0x3e0011e0	0.12506819
41	0x3d76eabf	0.060282465
42	0x3e73355c	0.23750824
43	0x3db219da	0.08696337
44	0xbe30d460	-0.17268515
45	0xbd8f3313	-0.069921635
46	0x3ef5431c	0.47902763
47	0xbd099e8e	-0.033598475
48	0xbca71ec4	-0.020400412
49	0x3e26b938	0.16281593
50	0x3e95ad25	0.2923366
51	0x3e25b116	0.16180834
52	0xbde75fc7	-0.11297565
53	0xbd9bf2ec	-0.07614693
54	0x3e5a79b4	0.21335489
55	0xbdfc5ce2	-0.123224035
56	0x3e49c7ed	0.19705172
57	0xbc2d010c	-0.010559332
58	0x3db5c7a1	0.08875967
59	0x3cb08d62	0.021551792
60	0x3e94cc3e	0.29062074
61	0x3d195e2a	0.037443317
62	0xbecad00e	-0.39611858
63	0xbcdf18bf	-0.02723348
64	0x3e05bb10	0.1305964
65	0x3e66cce3	0.22539096
66	0x3d934cf2	0.071924105
67	0x3e32ac1a	0.17448464
68	0xbb4500fc	-0.0030060401
69	0x3d042e3c	0.032270655
70	0x3d5bcde5	0.053663153
71	0x3d39a650	0.045324624
72	0xbdd90c89	-0.10598094
73	0x3da06632	0.07831992
74	0x3ed7e083	0.42163476
75	0x3de6f54e	0.11277257
76	0x3dec2bec	0.11531815
77	0xbceb7c78	-0.028745875
78	0xbeebfe2b	-0.46092352
79	0xbc5d293c	-0.013498601
80	0xbe1adb74	-0.15122777
81	0xbe67049e	-0.22560355
82	0xbdb082fe	-0.08618735
83	0xbd5e8fc9	-0.054336343
84	0x3d0ab106	0.03386023
85	0xbe2ab7e3	-0.1667171
86	0xbe9a6024	-0.30151474
87	0xbe514a23	-0.20438437
88	0x3dd7a3e0	0.105293036
89	0x3e06ed6a	0.13176504
90	0x3dd51abf	0.10405492
91	0x3ce52a18	0.027974173
92	0xbea039c8	-0.31294084
93	0x3da34f15	0.07974068
94	0x3ed1d049	0.4097922
95	0x3d6b1460	0.057392478
96	0x3cddfe0a	0.027098674
97	0x3dd96e3f	0.10616731
98	0x3edd1579	0.43180445
99	0x3d86af7c	0.0657644
100	0x3dd892d7	0.105748825
101	0xbe7d8cea	-0.24760786
102	0xbe3e5765	-0.18588026
103	0xbe604894	-0.21902686
104	0x3dc26cc9	0.09493405
105	0xbde632e9	-0.11240179
106	0xbec41f1a	-0.3830498
107	0xbdb6dd06	-0.089288756
108	0x3e9880c0	0.29785728
109	0xbe79a42a	-0.2437903
110	0xbe96320f	-0.29335067
111	0xbe1217e4	-0.14266926
112	0xbde7d300	-0.11319542
113	0x3d8135a1	0.06309057
114	0x3e9b8c21	0.30380347
115	0xbd22c89a	-0.03974209
116	0xbe02b5ab	-0.12764613
117	0x3d01b6dc	0.03166853
118	0x3e691d05	0.22764976
119	0x3e45fc9b	0.19334643
120	0xbe9729c9	-0.29524067
121	0x3cee56df	0.029094158
122	0x3ea05bb8	0.31319976
123	0xbc8b44e9	-0.017000632
124	0xbc131b4b	-0.008978675
125	0xbe8de236	-0.27711648
126	0xbf14daae	-0.5814618
127	0xbe4fcc01	-0.20292665
128	0x3d8af201	0.0678444
129	0xbb1113ec	-0.0022137119
130	0xbe39f932	-0.18161467
131	0xbdf960bf	-0.12176656
132	0x3e2cc98c	0.16873759
133	0x3d02808a	0.031860866
134	0x3ea01823	0.31268415
135	0x3e046d39	0.1293229
136	0xbe42798f	-0.18991683
137	0x3e474148	0.19458497
138	0x3ea09324	0.3136226
139	0x3e670f2d	0.22564383
140	0x3dd26aa7	0.102742486
141	0xbdb32e0a	-0.08749016
142	0xbe6f7bc8	-0.23387063
143	0xbe62e0a5	-0.22156008
144	0x3df9af91	0.1219169
145	0x3cc54b44	0.024083741
146	0x3d32633b	0.043551665
147	0xbe39dce3	-0.18150668
148	0xbda77c68	-0.081780255
149	0x3e389864	0.18026882
150	0x3ef68b96	0.4815337
151	0x3da5e260	0.08099818
152	0xbcc1a4a1	-0.023638071
153	0x3e4a27c8	0.19741738
154	0x3eac52fb	0.3365706
155	0x3dabae8f	0.08382904
156	0x3e07db7c	0.1326732
157	0x3db4339b	0.087989055
158	0x3ee9760d	0.45597878
159	0x3dae5d3b	0.08513876
160	0x3d027d6d	0.031857897
161	0x3c141b05	0.009039645
162	0x3e2654b7	0.16243254
163	0x3e551dfd	0.20812221
164	0x3e508626	0.20363674
165	0x3db210fb	0.08694645
166	0xbed3da5d	-0.41377535
167	0x3dc5e800	0.09663391
168	0x3e51e4af	0.20497392
169	0xbde5208d	-0.11187849
170	0x3c9320d8	0.017959997
171	0xbe707d5c	-0.23485321
172	0xbe0d6c96	-0.13810953
173	0x3d6ada32	0.057336994
174	0xbe688d5f	-0.22710179
175	0xbe16dfe6	-0.14733848
176	0x3e8a7cdb	0.27048382
177	0xbe51ac5a	-0.20475903
178	0xbeb20ffd	-0.34777823
179	0xbd56e674	-0.05246587
180	0xbd9e0adf	-0.07716917
181	0x3e376534	0.179097
182	0x3ed33aa9	0.41255692
183	0x3dac7eff	0.0842266
184	0x3d02e01b	0.031952005
185	0x38251118	3.9354985e-05
186	0xbe14fa6e	-0.14548656
187	0xbe070681	-0.13186075
188	0xbd0934e3	-0.033497702
189	0x3e0960b3	0.13415794
190	0x3e2991ed	0.16559573
191	0x3d91aa86	0.07112603
192	0x3c3702c8	0.011170097
193	0x3ceb22e9	0.02870317
194	0xbe4dde14	-0.20104247
195	0xbe018499	-0.12648238
196	0xbe474bce	-0.19462511
197	0x3e0cc7d2	0.137481
198	0xbec9314f	-0.39295432
199	0xbda16baa	-0.078818634
200	0x3d564dd7	0.052320328
201	0x3d75ae1a	0.05998049
202	0xbe062dbb	-0.13103382
203	0xbcbd5053	-0.02310959
204	0x3eaeff82	0.34179312
205	0xbe84a18c	-0.259045
206	0xbec7742f	-0.3895583
207	0xbe4438a6	-0.19162235
208	0x3e45fedc	0.19335502
209	0xbd00a5c2	-0.03140808
210	0xbeaf9c2a	-0.3429883
211	0xbdc15509	-0.09440047
212	0x3e912ffe	0.28356928
213	0xbd69ca86	-0.057077907
214	0xbdda0faf	-0.10647523
215	0xbca2435c	-0.01980751
216	0x3d55185b	0.05202518
217	0x3c9d7f2f	0.019225685
218	0xbf094511	-0.5362101
219	0x3cc94bc0	0.024572253
220	0x3e35ded6	0.17760786
221	0x3de25993	0.11052241
222	0xbef44897	-0.47711632
223	0x3e112d00	0.14177322
224	0xbded44bf	-0.11585378
225	0xbe29072a	-0.16506639
226	0x3ee4f6ac	0.44719446
227	0xbd89a153	-0.06720223
228	0x3e01a281	0.12659647
229	0x3db5bdc1	0.08874083
230	0xbe58de47	-0.21178542
231	0x3c3a1367	0.011357165
232	0xbe7b111e	-0.24518248
233	0x3c7ce634	0.015435744
234	0x3da786d2	0.08180012
235	0x3d43b000	0.04777527
236	0x3b7a177c	0.003816097
237	0x3e389e31	0.18029095
238	0x3edd6734	0.432428
239	0x3e31574c	0.17318457
240	0xbddb3719	-0.107038684
241	0x3c776d9f	0.015101819
242	0xbe24f992	-0.16110829
243	0xbdeff7eb	-0.117172085
244	0xbd781f88	-0.060576946
245	0x3e1168ae	0.14200088
246	0x3e812fa0	0.25231647
247	0x3e4b4f7b	0.19854538
248	0xbeb451ee	-0.35218757
249	0xbd88cf32	-0.06680144
250	0x3eca3372	0.39492375
251	0xbd78ac37	-0.060711112
252	0xbd040f92	-0.03224141
253	0xbcfec227	-0.031098438
254	0xbe59347e	-0.2121143
255	0xbc730569	-0.014832833

module.fc1.0.bias f4 [256]
0	0x3ddc4847	0.10755973
1	0x3d0cc6e1	0.034369353
2	0x3d99e135	0.07513658
3	0xbe3bc896	-0.18338236
4	0xbcd96804	-0.026538856
5	0xbc1a96a8	-0.009435333
6	0x3e15c2ae	0.14625046
7	0xbde41d2c	-0.111383766
8	0x3e05bf3f	0.13061236
9	0xbe1ed22b	-0.1550986
10	0x3d0a1690	0.033712924
11	0x3db2a1f7	0.087222986
12	0x3e34f78d	0.17672558
13	0xbcfb3288	-0.030663744
14	0x3e460505	0.19337852
15	0xbdc1d7b5	-0.09464971
16	0xbddfa928	-0.10920936
17	0x3e2ed811	0.1707461
18	0x3e0d5922	0.13803533
19	0x3d4d4829	0.050117645
20	0x3e3dbf80	0.18530083
21	0xbe13dd69	-0.1443993
22	0x3e111062	0.14166406
23	0x3dbfe906	0.093706176
24	0xbdbea6b7	-0.09309142
25	0x3e4aed61	0.19817115
26	0x3d97b6c0	0.07407904
27	0xbe1f2b52	-0.15543869
28	0xbd9314f7	-0.07181733
29	0x3e6358c1	0.22201826
30	0xbd0823c7	-0.033237245
31	0xbd3a96ea	-0.04555408
32	0xbe0c65cc	-0.13710707
33	0xbe2867fc	-0.16445917
34	0xbddbbc1b	-0.10729238
35	0xbe232cfe	-0.15935132
36	0x3e4d8eaa	0.20073953
37	0xbd7fa830	-0.062416255
38	0x3dd7aec3	0.1053138
39	0xbdb5f16c	-0.08883938
40	0x3e6377df	0.22213696
41	0xbd330d20	-0.04371369
42	0x3e564b4e	0.20927164
43	0x3c98633f	0.018602012
44	0x3dd7aff4	0.10531607
45	0x3cfc7e22	0.030821864
46	0x3e42e411	0.19032313
47	0xbda93834	-0.08262673
48	0x3d5e003c	0.054199442
49	0x3dd40b72	0.103537455
50	0xbdebbbe8	-0.1151045
51	0xbdb61f85	-0.088927306
52	0xbe299ab6	-0.16562924
53	0xbd85089b	-0.06495782
54	0x3d93b8f6	0.07213013
55	0xbcb5f0f6	-0.022209626
56	0xbe1ba677	-0.1520022
57	0x3e449388	0.19196904
58	0x3e32521d	0.17414136
59	0x3e2ef77d	0.17086597
60	0xbdefe584	-0.117136985
61	0x3e2c1cf5	0.16807921
62	0x3e42ed67	0.19035874
63	0x3d15380f	0.036430415
64	0xbd99a2d6	-0.075017616
65	0x3e27516a	0.16339651
66	0x3e3e5be3	0.1858974
67	0xbe1b14d2	-0.15144661
68	0xbe11988a	-0.14218345
69	0x3e3fc75a	0.1872839
70	0x3e12a443	0.14320473
71	0x3cbc851d	0.023012692
72	0xbe09020f	-0.13379692
73	0x3d9e77fc	0.07737729
74	0x3e4c8c80	0.19975471
75	0xbdf2f7df	-0.11863684
76	0x3e46de2a	0.19420686
77	0xbe08bd3f	-0.13353442
78	0x3e16f0c2	0.1474028
79	0x3de0cc8d	0.10976515
80	0x3de619ba	0.11235376
81	0xbdfc8e72	-0.12331857
82	0xbde3e3ae	-0.11127411
83	0xbcc30b26	-0.023809027
84	0xbdcdf422	-0.1005633
85	0xbe23b09b	-0.15985338
86	0xbd0ada2e	-0.03389948
87	0x3c37923a	0.011204297
88	0x3e34602d	0.17614813
89	0x3e2cd362	0.16877511
90	0xbe3baddd	-0.18328042
91	0xbd706401	-0.05868912
92	0x3e00d0c1	0.12579633
93	0x3db23595	0.08701626
94	0x3e1a5291	0.15070559
95	0xbd0d8d92	-0.03455884
96	0xbdf2da15	-0.11858002
97	0xbdff898d	-0.124774076
98	0xbe18f430	-0.149369
99	0x3c6b688c	0.014368188
100	0xbd3c5966	-0.045983694
101	0x3d922be7	0.0713728
102	0xbd31ac41	-0.043377165
103	0x3e481c49	0.1954204
104	0xbe267d90	-0.16258836
105	0x3e30b7df	0.17257641
106	0xbcb632a3	-0.022240942
107	0xbd835a69	-0.06413729
108	0x3e341243	0.17585091
109	0x3e02e6e0	0.12783384
110	0xbdb37c60	-0.08763957
111	0x3df934ae	0.12168251
112	0xbdea91cb	-0.11453589
113	0xbdeff70f	-0.117170446
114	0x3e2824ce	0.1642029
115	0xbdcefa61	-0.1010635
116	0xbc01813e	-0.007904349
117	0x3db58514	0.08863273
118	0x3ba501c6	0.005035612
119	0xbe0f69b3	-0.14005165
120	0x3e37058b	0.17873208
121	0x3d123a98	0.03570041
122	0xbdc01f79	-0.09381003
123	0xbbefff43	-0.0073241307
124	0x3e3cbfeb	0.18432586
125	0x3e4cac59	0.1998762
126	0xbdae387a	-0.08506866
127	0x3b5bf2ae	0.0033561396
128	0x3e31c7f8	0.17361438
129	0xbe738bd7	-0.23783813
130	0x3e50cc1b	0.2039036
131	0xbd9866a5	-0.07441453
132	0xbc8dbfec	-0.01730343
133	0x3e0a4a8e	0.13505003
134	0xbe3949d3	-0.18094568
135	0xbd85760f	-0.065166585
136	0x3dddf0e2	0.108369604
137	0x3c0c2beb	0.008555393
138	0x3e582e3f	0.21111391
139	0x3e2855c3	0.16438965
140	0x3e43a472	0.191057
141	0x3ce30f90	0.027717382
142	0xbe17893d	-0.14798446
143	0x3e29bfaa	0.1657702
144	0xbdacaa55	-0.08430926
145	0x3d5fefc7	0.05467203
146	0xbe129917	-0.14316212
147	0x3e37d39d	0.17951818
148	0x3e558f18	0.20855367
149	0x3e382f42	0.17986777
150	0xbd280208	-0.041017562
151	0xbd00e660	-0.031469703
152	0x3e6069ad	0.21915312
153	0xbe2edc28	-0.1707617
154	0xbe130970	-0.14359069
155	0x3e2dacd0	0.16960454
156	0xbca4e181	-0.02012706
157	0x3e1084b1	0.14113118
158	0xbdbf1349	-0.0932985
159	0x3e181641	0.14852239
160	0x3badc409	0.00530291
161	0xbdd8cc3d	-0.1058583
162	0x3e275030	0.16339183
163	0xba4debf5	-0.000785529
164	0x3e517c16	0.20457491
165	0x3de04b89	0.10951907
166	0x3b7dad22	0.0038707932
167	0x3e599b19	0.21250571
168	0xbe499146	-0.19684324
169	0x3c7f1fe1	0.015571565
170	0x3e38c721	0.18044712
171	0x3d996bc8	0.07491261
172	0x3dbc1b13	0.091848515
173	0xbd2ee2bb	-0.042696696
174	0xbcdb1a03	-0.026745802
175	0x3d945b1e	0.07243942
176	0x3c4fad50	0.012675598
177	0x3e542e0b	0.20720689
178	0xbd3c7cec	-0.046017572
179	0xbca3e98c	-0.020008825
180	0xbe121e1e	-0.14269301
181	0x3d07f24c	0.033190057
182	0x3e25645d	0.16151567
183	0xbdc54dc8	-0.09633976
184	0x3d941db1	0.07232226
185	0x3e44295e	0.19156405
186	0x3e35b086	0.1774312
187	0xbdba05ac	-0.09083113
188	0xbe601d13	-0.21886091
189	0xbdc9430b	-0.098272406
190	0x3d2937ed	0.0413131
191	0x3e18905e	0.14898822
192	0x3e37ed9b	0.17961733
193	0x3e3fb0cc	0.18719786
194	0x3cc2fbce	0.02380171
195	0xbd1882be	-0.03723406
196	0xbe2d0bb5	-0.16898997
197	0x3e108733	0.14114074
198	0x3e4692bb	0.1939191
199	0xbdd7a19b	-0.10528871
200	0xbd766255	-0.06015237
201	0x3da079c4	0.07835725
202	0x3cc58ca0	0.024114907
203	0x3dd1ba30	0.102405906
204	0x3e48ba9d	0.19602437
205	0xbd436f28	-0.04771343
206	0x3e247741	0.16061117
207	0xbdee538d	-0.1163703
208	0x3d65142a	0.055927433
209	0xbe469025	-0.19390924
210	0xbcdf27fb	-0.027240744
211	0x3e0001e5	0.12500723
212	0xbe0d1f1f	-0.13781403
213	0x3b39a63f	0.002832785
214	0x3e76c1f8	0.2409743
215	0x3e3735cc	0.17891616
216	0x3d4a4189	0.049378905
217	0xbe0cc295	-0.13746102
218	0x3d10db6b	0.035365503
219	0xbd5af1e3	-0.053453337
220	0x3e0b5cb1	0.13609578
221	0x3dd9cc48	0.10634667
222	0xbe376acc	-0.17911834
223	0xbdccafc7	-0.09994464
224	0x3e4c7e24	0.19969994
225	0x3e3409de	0.17581889
226	0xbd94e327	-0.07269888
227	0x3e245d0f	0.16051124
228	0x3e09f847	0.13473617
229	0x3e15245c	0.14564651
230	0xbe38992d	-0.18027182
231	0x3e537bcd	0.20652695
232	0x3d20aff8	0.039230317
233	0x3e2a5512	0.16634014
234	0x3e151ee8	0.14562571
235	0x3e14b600	0.14522552
236	0x3e20a1db	0.15686743
237	0xbe3ed97b	-0.1863765
238	0xbdad2f34	-0.08456269
239	0x3e23424d	0.1594326
240	0xb9e3f72b	-0.00043480968
241	0x3e26be4b	0.16283529
242	0xbde577ac	-0.11204466
243	0x3d735c2d	0.059414078
244	0x3d8a13f2	0.067420855
245	0xbe09f319	-0.1347164
246	0x3d8e498c	0.06947622
247	0x3e2a4a25	0.16629846
248	0xbc9065c8	-0.017626658
249	0xbda2fcdb	-0.079583846
250	0x3e260558	0.16212976
251	0xbe022cb5	-0.12712367
252	0xbe2ed904	-0.17074972
253	0x3b632385	0.0034658622
254	0x3cce95cb	0.025217911
255	0x3e2c3317	0.16816364

module.fc2.0.weight f4 [64, 256]
0	0xbbc6d523	-0.0060678883
1	0x3e01e923	0.12686591
2	0x3d64bb54	0.055842713
3	0xbe856c6d	-0.26059285
4	0xbd79a7c5	-0.060951013
5	0x3df2cb82	0.11855222
6	0x3dba87ef	0.091079585
7	0x3dc59143	0.09646847
8	0xbdc7c723	-0.09754779
9	0xbe862b32	-0.2620483
10	0xbdc416c5	-0.095746554
11	0xbbce790c	-0.006301051
12	0x3d179567	0.037007716
13	0xbd968ff7	-0.07351678
14	0xbd73ae1d	-0.05949222
15	0x3dcf36ec	0.101178974
16	0xbda1090c	-0.07863054
17	0x3e8ecfa4	0.27892792
18	0xbdadce3e	-0.08486603
19	0xbd680357	-0.05664381
20	0x3eba26f0	0.36357832
21	0xbe0260ca	-0.12732235
22	0x3e83b714	0.25725615
23	0x3e193950	0.14963269
24	0x3b0def6f	0.0021657606
25	0x3ea7069e	0.32622236
26	0xbd6db557	-0.058034267
27	0xbcd8976b	-0.02643939
28	0xbcf9c523	-0.03048951
29	0x3d9439af	0.07237565
30	0xbdf3a47d	-0.11896608
31	0x3e2d5d6e	0.16930172
32	0x3e329aa3	0.17441802
33	0x3e0aeadf	0.13566159
34	0x3c3e3802	0.011610033
35	0xbe77d824	-0.24203545
36	0x3e06f077	0.13177668
37	0xbce14fcd	-0.027503872
38	0xbd900d8b	-0.07033833
39	0xbe66fb6e	-0.2255685
40	0x3e9f5e52	0.31126648
41	0x3dfa0683	0.12208273
42	0x3ddb9917	0.10722559
43	0x3e542662	0.20717767
44	0x3e870664	0.26372063
45	0xbe25ae67	-0.1617981
46	0x3e4776b3	0.19478874
47	0xbe999b65	-0.3000137
48	0xbd129fef	-0.035797056
49	0xbde85d5a	-0.113459304
50	0x3de55fef	0.111999385
51	0x3db8a468	0.09015733
52	0xbe8e4fa7	-0.27795145
53	0xbde9b136	-0.114107534
54	0xbd853094	-0.06503406
55	0xbe18307c	-0.14862245
56	0xbe3a04e0	-0.18165922
57	0x3e15b98a	0.14621559
58	0x3e2edcda	0.17076436
59	0xbdd380fd	-0.10327337
60	0x3e095d6e	0.13414547
61	0x3e81de82	0.25365072
62	0x3b40b26e	0.0029403227
63	0x3e0bc028	0.1364752
64	0x3c896406	0.016771328
65	0x3d9c3e9a	0.07629128
66	0x3e6ca393	0.23109274
67	0xbe8225da	-0.25419503
68	0xbdb4478b	-0.08802708
69	0x3ea91e90	0.3303113
70	0xba36c152	-0.0006971556
71	0xbd9e404f	-0.0772711
72	0xbcc60cf0	-0.024176091
73	0x3e28f16f	0.1649835
74	0x3d1cf97e	0.03832387
75	0x3da4ed7f	0.08053111
76	0x3e719c4a	0.23594776
77	0xbd9f8bd1	-0.0779034
78	0xbd78eeb9	-0.06077454
79	0x3d93a3fa	0.072090104
80	0x3de9d909	0.11418349
81	0xbe68a0eb	-0.22717635
82	0xbe2ec1a1	-0.17066051
83	0xbd68cc56	-0.056835495
84	0xbdf0b5fb	-0.1175346
85	0xbe99c8fa	-0.30036145
86	0xbdf6b319	-0.12045879
87	0x3e1d29f4	0.15348035
88	0x3e4d9e8e	0.20080015
89	0x3cb4a1d8	0.02204983
90	0xbcfeb289	-0.031090992
91	0xbdab3a4a	-0.08360727
92	0xbd4284c2	-0.04748989
93	0xbdb20592	-0.08692469
94	0x3e98d1c0	0.29847527
95	0xbe0e91d7	-0.13922821
96	0xbe90b75f	-0.282649
97	0x3dd6fe94	0.10497776
98	0xbb379261	-0.0028010833
99	0x3b7fcc42	0.003903166
100	0xbe4ffccc	-0.20311278
101	0xbdb8e2d6	-0.090276405
102	0xbcdeafbe	-0.02718341
103	0x3e9c537b	0.3053244
104	0xbde3f08b	-0.11129864
105	0x3d713908	0.05889228
106	0xbe2bfa31	-0.16794659
107	0xbd819294	-0.06326786
108	0xbda5072f	-0.08058011
109	0x3e9e86c7	0.30962202
110	0x3d0a3ff5	0.0337524
111	0xbc6cdc56	-0.014456829
112	0xbe8f96f3	-0.28044853
113	0xbd128f3b	-0.035781126
114	0x3e646cef	0.2230718
115	0xbc113a62	-0.008864017
116	0x3e138171	0.14404847
117	0xbdb3e38d	-0.08783636
118	0xbe0563aa	-0.130263
119	0xbdcd4eb1	-0.10024775
120	0xbce2da06	-0.027691852
121	0x3cf99f49	0.03047146
122	0xbe3540f4	-0.17700559
123	0xbca311e7	-0.019905997
124	0x3dc3552e	0.09537731
125	0x3e8399ee	0.25703377
126	0x3e0ad011	0.13555934
127	0x3e531ebd	0.20617194
128	0xbddaeaf4	-0.10689345
129	0xbd2148e4	-0.039376155
130	0x3e43ffcd	0.19140549
131	0x3dff65e3	0.12470605
132	0xbda9a5d0	-0.08283579
133	0x3e57894a	0.21048465
134	0xbded2b7c	-0.115805596
135	0xbe1fcc1a	-0.15605202
136	0x3de678e6	0.11253528
137	0xbdf5f576	-0.120097086
138	0x3e9022d3	0.2815157
139	0x3e5dadff	0.21648405
140	0xbdb1a468	-0.08673936
141	0x3e17c349	0.14820589
142	0xbe0b4755	-0.1360143
143	0x3dfda855	0.123856224
144	0xbdad5795	-0.084639706
145	0x3b1eda17	0.0024238878
146	0xbcc2dc43	-0.02378667
147	0x3ead98f3	0.33905753
148	0x3d6315ba	0.055440642
149	0x3dfc0ff1	0.12307728
150	0xbddaf9ba	-0.10692163
151	0x3e06a04c	0.13147086
152	0x3e5afd3f	0.21385668
153	0xbe8a717a	-0.270397
154	0x3e0f870b	0.14016359
155	0x3ebaf935	0.36518255
156	0x3e3b3168	0.18280566
157	0x3e89d857	0.26922867
158	0xbc779bc3	-0.01511282
159	0x3e215305	0.15754326
160	0x3da7557d	0.081706025
161	0x3d90af27	0.07064658
162	0x3e918238	0.28419662
163	0xbcb1bc98	-0.021696374
164	0x3ea9ad5b	0.33140072
165	0x3e84d313	0.25942287
166	0xbdd1f667	-0.10252076
167	0x3aac810e	0.001316102
168	0xbe41f674	-0.1894167
169	0x3d599df3	0.053129148
170	0x3e4b389c	0.19845814
171	0x3e851bc6	0.25997752
172	0xbd23772b	-0.03990857
173	0xbe22a2fa	-0.15882483
174	0xbd827095	-0.063691296
175	0x3e821eea	0.2541421
176	0x3da05bcd	0.078300096
177	0x3dbfd15f	0.09366106
178	0xbe58a241	-0.21155645
179	0xbe2b1e7f	-0.16710852
180	0x3dd0b0f5	0.10190002
181	0x3e722e28	0.2365042
182	0x3e853df4	0.2602383
183	0xbe293a37	-0.16526113
184	0x3d9cb575	0.07651798
185	0x3dcc1142	0.09964229
186	0x3e9f2a54	0.3108698
187	0xbe6675a1	-0.2250581
188	0xbe410fdd	-0.18853708
189	0x3c2b0e99	0.010440492
190	0x3dc6c6a8	0.097058594
191	0x3cb7c3c6	0.02243222
192	0x3c9d0d04	0.019171245
193	0x3e62ed08	0.22160733
194	0x3e81d690	0.2535901
195	0x3c75b74a	0.014997313
196	0xbcdd39f5	-0.027005175
197	0x3e914ec0	0.28380394
198	0xbde559af	-0.111987464
199	0xbe72f0ff	-0.23724745
200	0x3e28e4d0	0.16493535
201	0x3d0a459c	0.03375779
202	0xbb0c7608	-0.0021432657
203	0x3e7b3b8c	0.24534434
204	0x3ea6aec4	0.3255521
205	0xbdb53b79	-0.08849234
206	0x3c017a46	0.007902687
207	0xbdfe1793	-0.1240684
208	0x3e2c2ad8	0.16813219
209	0x3d014a53	0.03156502
210	0xbc8e5d85	-0.017378578
211	0x3e5a341d	0.21308942
212	0xbd66ac48	-0.056316644
213	0xbdb640ca	-0.08899076
214	0xbcc41750	-0.023936898
215	0xbc3d224f	-0.011543824
216	0xbdc965bb	-0.09833857
217	0x3ce9c952	0.02853838
218	0xbcc05bf0	-0.02348134
219	0x3d921da8	0.07134563
220	0xbcda3f52	-0.026641522
221	0x3e30ec1e	0.17277572
222	0xbea0d638	-0.31413436
223	0xbeac2a04	-0.33625805
224	0x3cd3665e	0.025805648
225	0x3d55de60	0.052214026
226	0x3e2b3642	0.16719916
227	0xbd21065c	-0.039312705
228	0x3e2e7d2c	0.17039937
229	0x3e9aa626	0.30204886
230	0x3ddda738	0.1082291
231	0x3e8f455c	0.27982605
232	0x3d9cb258	0.07651204
233	0xbd282af9	-0.041056607
234	0xbb87fcda	-0.0041500153
235	0xbdb6402a	-0.08898957
236	0x3d93cf19	0.07217235
237	0xbe9b155a	-0.30289727
238	0xbe5a8f9d	-0.21343847
239	0xb9559116	-0.00020367312
240	0xbe0f89dd	-0.14017434
241	0x3e08ac5d	0.13347001
242	0xb9bcf681	-0.00036041814
243	0xbe100b9d	-0.1406693
244	0xbdf92c1d	-0.12166617
245	0x3e15ccac	0.14628857
246	0x3ceb641e	0.028734263
247	0xbd430d0a	-0.047619857
248	0x3d7227ad	0.05911987
249	0x3d7064a7	0.05868974
250	0x3e5dd5a5	0.2166353
251	0xbdd56be6	-0.104209706
252	0xbdc7c025	-0.097534455
253	0x3e60b985	0.2194577
254	0xbde5d1d4	-0.11221662
255	0xbda076b8	-0.07835144

module.fc2.0.bias f4 [64]
0	0x3e5c56ad	0.21517439
1	0x3db1a36b	0.08673748
2	0x3e3725df	0.1788554
3	0x3e11eb8c	0.1425001
4	0x3d76fa42	0.06029726
5	0xbe2be61f	-0.16787003
6	0xbe45d488	-0.19319355
7	0xbd112b40	-0.035441637
8	0x3e399b77	0.18125711
9	0x3e46f8b2	0.19430807
10	0x3e0fd3ba	0.14045611
11	0x3d66b444	0.05632426
12	0x3e37b807	0.17941295
13	0xbdafd558	-0.08585614
14	0xbe040b4e	-0.12894937
15	0xbe01305e	-0.12616107
16	0x3de9c70c	0.11414918
17	0x3e2eeae6	0.17081794
18	0x3d84c82b	0.064834915
19	0x3cbb7ff0	0.022888154
20	0xbcf2297b	-0.029560795
21	0xbe43b3fb	-0.19111626
22	0x3d82f327	0.06394034
23	0x3e065e64	0.13121945
24	0xbdfd36f9	-0.12364001
25	0x3e61b14c	0.2204029
26	0xbe222863	-0.15835719
27	0xbe17b49d	-0.14814992
28	0xbdf9c45a	-0.12195654
29	0xbdd912b8	-0.105992734
30	0xbdf31bff	-0.11870574
31	0xbdda404a	-0.106567934
32	0xbccac132	-0.024750326
33	0xbe0a288d	-0.13492031
34	0xbdbac139	-0.091188855
35	0xbe2d5745	-0.16927822
36	0x3e4e09ee	0.20120975
37	0x3e3d7399	0.18501128
38	0xbe64c080	-0.22339058
39	0xbe3eeba8	-0.18644583
40	0xbd3a72ce	-0.045519643
41	0x3e36d01c	0.17852825
42	0xbdf007ee	-0.117202625
43	0x3e339ec7	0.17541037
44	0x3dbaf731	0.09129179
45	0x3e322ee9	0.17400707
46	0x3cf4e6b1	0.029895158
47	0xbe2b5216	-0.16730532
48	0x3e184db0	0.14873385
49	0x3ddb83f6	0.10718529
50	0x3e2aabe0	0.16667128
51	0x3e2b676a	0.16738668
52	0x3e3e6cbf	0.18596171
53	0x3e44f978	0.1923579
54	0xbd1c845d	-0.03821217
55	0xbdff9b9b	-0.12480851
56	0xbe2d7df8	-0.16942585
57	0x3e351496	0.17683634
58	0x3cd3355c	0.02578228
59	0x3c98a7ce	0.018634703
60	0x3dc00347	0.09375625
61	0xbde85944	-0.11345151
62	0xbe3599aa	-0.177344
63	0xbdebf148	-0.1152063

module.output_layer.0.weight f4 [2, 64]
0	0x3e98a1f9	0.29811075
1	0x3edc18e8	0.42987752
2	0x3f2af4a2	0.6677953
3	0x3d9a2052	0.07525696
4	0xbdf1561f	-0.117840044
5	0xbe3fd62e	-0.18734047
6	0xbeb6b841	-0.3568745
7	0x3e755782	0.23959163
8	0x3e9f3dfe	0.31101984
9	0x3f149660	0.58041954
10	0x3d1ed9f4	0.038782075
11	0x3ec6dd2f	0.38840625
12	0x3eef0d25	0.46689716
13	0xbec6f77e	-0.38860697
14	0xbda07258	-0.07834309
15	0xbd32423d	-0.0435202
16	0x3da31d4b	0.079645716
17	0x3ed966a5	0.42461124
18	0xbdf89d79	-0.121394105
19	0x3e0f5574	0.13997442
20	0x3e6046a4	0.21901947
21	0xbee4a969	-0.446605
22	0xbe0dab27	-0.1383482
23	0x3efce6ad	0.49394742
24	0xbf0e1a9c	-0.5550935
25	0x3e51cfd3	0.20489435
26	0xbec0181a	-0.37518388
27	0xbf089a0d	-0.5336006
28	0xbde7ecfe	-0.113244995
29	0xbded402a	-0.11584504
30	0xbe8b43f8	-0.27200294
31	0xbee3633f	-0.44411656
32	0x3d31d5e3	0.04341687
33	0xbe1ebc93	-0.15501623
34	0xbd1bd79d	-0.03804742
35	0xbec7b79f	-0.3900728
36	0x3ec1f697	0.37883446
37	0x3ee1bc9c	0.4408921
38	0xbe817071	-0.25281098
39	0xbec3ba50	-0.38228083
40	0xbb6f4a3b	-0.003651275
41	0x3e740fa9	0.23834099
42	0xbef33b5d	-0.47506228
43	0x3f2d8750	0.67784595
44	0x3ee27fda	0.44238168
45	0x3e9d5113	0.30725917
46	0x3eca66e7	0.39531633
47	0xbec8d715	-0.39226595
48	0x3e16a446	0.14711103
49	0x3ed5a3cf	0.4172654
50	0x3ecd086e	0.40045494
51	0x3f31808d	0.6933678
52	0x3ee2c484	0.44290555
53	0x3e6ac859	0.22927989
54	0xbe6d0c62	-0.23149255
55	0xbe85784d	-0.26068345
56	0xbec84a19	-0.39119032
57	0x3ea9a784	0.33135617
58	0xbe4756b2	-0.19466665
59	0xbb503d22	-0.003177472
60	0x3eacb07e	0.33728403
61	0xbe325b02	-0.17417529
62	0xbea626a6	-0.3245136
63	0xbe18bdd3	-0.14916162
64	0x3dccf0d8	0.10006875
65	0xbce4bf4f	-0.027923254
66	0x3edad932	0.42743832
67	0x3e804967	0.25056002
68	0x3e8a7186	0.27039737
69	0xbeb76ca8	-0.35825086
70	0xbeca75f0	-0.39543104
71	0xbef6a6c6	-0.48174113
72	0x3f087603	0.5330507
73	0x3ee2568a	0.4420665
74	0x3e610aa9	0.21976723
75	0xbe6ba934	-0.23013765
76	0x3e932747	0.28740904
77	0x3dee5c4c	0.11638698
78	0xbf0c9e41	-0.54928976
79	0xbd35e1b1	-0.04440469
80	0x3f1a2af1	0.60221773
81	0x3e86b91e	0.26313108
82	0x3ed68b18	0.41902995
83	0xbd858c0e	-0.06520854
84	0xbea5ff93	-0.3242155
85	0xbe8c89b5	-0.27448812
86	0x3e8c8e72	0.27452427
87	0x3caf3daf	0.021391718
88	0xbdb2d769	-0.087324925
89	0x3e4ec1ad	0.20191069
90	0xbf073de1	-0.52828795
91	0xbec6c678	-0.38823295
92	0xbeb74508	-0.35794854
93	0xbeee41ef	-0.46534678
94	0xbdab207a	-0.08355804
95	0x3d83b200	0.06430435
96	0xbdd007e3	-0.10157754
97	0xbedbf26c	-0.4295839
98	0xbeaa4c5f	-0.33261392
99	0xbedb2552	-0.4280191
100	0x3ea3117f	0.31849286
101	0x3e7ec792	0.24880818
102	0xbee5d8d6	-0.44891995
103	0xbd39fb5c	-0.04540573
104	0xbc123b82	-0.008925321
105	0x3f09b325	0.5378898
106	0x3d60e191	0.054902617
107	0x3f1a9aa6	0.60392225
108	0xbda1a8ed	-0.07893548
109	0x3f236ca8	0.6383767
110	0xbeb25afa	-0.34835035
111	0xbee93c31	-0.45553735
112	0x3eff1ade	0.49825186
113	0xbe026adc	-0.12736076
114	0x3f136d34	0.57588506
115	0x3f062938	0.52406645
116	0x3e6ab172	0.22919253
117	0x3e9abbb1	0.30221322
118	0x3da4af60	0.080412626
119	0xbd347c2e	-0.04406374
120	0xbe9dad0b	-0.30796084
121	0x3f051f70	0.52001095
122	0x3e5b24aa	0.21400705
123	0xbbe4de53	-0.006984511
124	0xbd137a79	-0.03600547
125	0xbf0a9ef5	-0.541488
126	0xbe9b163c	-0.302904
127	0xbea97188	-0.3309443

module.output_layer.0.bias f4 [2]
0	0x3e2b4c93	0.1672843
1	0x3e29e0fe	0.16589734
