distributed_DQN/CartPole_distributed/best_model.pt (torch_old, 72742 bytes, 6 tensors)

module.fc1.0.weight f4 [256, 4]
000000 76 de ca 3e c2 17 18 be b4 b3 92 3e 32 36 49 3e
       0.3962285 -0.14852813 0.28652728 0.1964958
000010 32 3d 4c 3d e3 9c fe bd bf 50 d6 bd c7 c9 6c be
       0.049863048 -0.124322675 -0.1046462 -0.23123847
000020 df 4f bc bb d7 58 ad 3c de 3a 84 3f ef 62 3e 3e
       -0.005746826 0.021160526 1.0330465 0.18592428
000030 2d 1b 61 3d 15 15 7f bc ce cb c5 3f 81 0e dd 3d
       0.054957557 -0.015568991 1.5452821 0.10793782
000040 30 de 39 3d d4 85 f7 3d 80 17 dd bf 79 a3 e3 bd
       0.04537791 0.120860726 -1.7272797 -0.11115164
000050 10 3b 22 3e 56 63 14 be 73 66 bb bf 70 89 90 be
       0.15842843 -0.14491019 -1.464064 -0.28229856
000060 89 2c 9e 3e 05 68 70 3c 0f 22 cb 3f ad ad 38 3e
       0.30893353 0.014673238 1.5869769 0.18035002
000070 ac 0a 68 3e 81 15 95 3b ef 33 73 3f 60 bf d2 3e
       0.22660321 0.0045496826 0.9500112 0.41161633
000080 50 f5 b2 3c ee 84 35 3d 2f 32 90 3f 8c 9c 9d 3e
       0.02184549 0.044316225 1.1265315 0.30783498
000090 85 34 85 3d b6 cd 25 bc f6 f8 75 be 11 06 bf be
       0.06504158 -0.010119846 -0.24020752 -0.37309316
0000a0 26 b4 95 be 50 28 44 3e 7c 1b 90 bf cc 47 c7 3c
       -0.29239005 0.19156003 -1.1258388 0.024326228
0000b0 ea 34 4f bf 02 27 91 3e 7d 7c 03 40 6a 95 7f bf
       -0.80940115 0.28350073 2.0544732 -0.9983736
0000c0 4b 96 e9 3d cd c0 55 be be e5 c0 3f 06 87 88 3d
       0.11405619 -0.20874329 1.5070112 0.06666379
0000d0 05 13 e4 3c 2b 10 5e 3d 82 c5 bb bf 04 5b 17 be
       0.0278411 0.054214638 -1.466965 -0.14780813
0000e0 d4 0f b3 3d 91 9a 17 3e 46 a0 bb bf 73 9a 51 bd
       0.08743253 0.14805056 -1.4658287 -0.051172685
0000f0 48 81 63 bc 1a e3 18 3e 5e 0a b8 bf 3a 48 83 bd
       -0.0138858035 0.14930382 -1.4378164 -0.064102605
000100 e9 f2 15 3c e1 87 e2 3d c5 90 d1 3f fd 74 b3 3e
       0.009152153 0.11061073 1.6372305 0.35050192
000110 f1 d0 dd bd 4b af a9 3d 9a 79 25 be d2 77 28 3e
       -0.10830868 0.082853876 -0.16159669 0.16451958
000120 fc 74 2d 3d 67 6f b5 bd 3a 41 86 3f 83 cd 01 3e
       0.042347893 -0.08859139 1.0488656 0.12676053
000130 23 e9 f5 3d eb 8b e4 3d 7f 6f 34 bf a5 87 9a be
       0.12007358 0.111595 -0.7048263 -0.30181614
000140 91 47 d3 be 82 46 7e 3e 95 dc 01 40 dc 97 84 bf
       -0.41265538 0.24831584 2.0290883 -1.0358844
000150 32 6c 94 3e cb 65 d2 3d b2 ea 93 bf d3 18 fd bd
       0.28988796 0.10273322 -1.1555998 -0.123582505
000160 9d 0b 65 bd 66 4f 0f 3e 2a a7 1b 3f 17 88 98 3e
       -0.05591928 0.13995132 0.6080195 0.29791328
000170 81 6a 48 3b b8 86 04 3d bf 1a d1 bf 61 72 48 be
       0.003058106 0.03235504 -1.6336287 -0.19574882
000180 42 9e 19 3d d0 cf c2 bd 92 27 17 3f 75 37 ae 3c
       0.037504442 -0.09512293 0.59044755 0.021266678
000190 e1 01 a6 3e 06 26 72 3e 79 39 9e 3f ff 17 94 3e
       0.32423308 0.23647317 1.2361289 0.28924558
0001a0 ad 60 42 be 61 08 bf 3d 80 dd d1 3f b2 a8 3f 3e
       -0.18982191 0.0932777 1.6395721 0.18716696
0001b0 d0 a2 78 3d 4b 38 0d 3e 94 32 d9 bf 86 f5 ba bd
       0.060702145 0.13791005 -1.696856 -0.09128861
0001c0 12 22 bc be 70 0a bf be f1 00 22 bf 24 81 9e bd
       -0.36744744 -0.3731265 -0.63282686 -0.07739475
0001d0 86 2b 4d be 8e ff 92 bc ce 2f 98 bf 9f 29 58 be
       -0.20036134 -0.017944124 -1.1889589 -0.21109627
0001e0 90 a7 10 3e d9 6c 43 bd d7 9a 9e 3f de 43 51 3e
       0.1412642 -0.047711227 1.2391003 0.20436046
0001f0 3d 49 9b bd 9a e1 45 bd 30 00 c8 3f d5 95 78 3e
       -0.075823285 -0.048310854 1.5625057 0.24275906
000200 b8 59 8e bb 58 9d 94 bd 3c 9e 9f 3f a1 6b c7 3d
       -0.0043441914 -0.072565734 1.2470164 0.097373255
000210 43 e8 96 3d fd f8 1c bd 2f 69 2e bf e7 50 31 be
       0.07368519 -0.03832339 -0.6812925 -0.17316018
000220 00 65 4b be 72 b6 9c 3d 7e f3 e4 3e 34 55 36 3e
       -0.19862747 0.07651986 0.4471702 0.1780594
000230 93 1a 6a 3e 54 22 8d 3e 74 a0 35 3f 01 c1 cc 3e
       0.228617 0.27565253 0.7094796 0.39991
000240 e4 18 11 be 07 86 15 3e 7e 95 9c bf e6 5f 32 bd
       -0.14169651 0.14601909 -1.2233121 -0.043548487
000250 18 52 ab be 14 1a 47 be 59 06 34 bf df 29 70 be
       -0.3346107 -0.19443542 -0.70322186 -0.23453473
000260 ff 25 c6 3d eb a0 b9 3d 3e 5c 53 bf ed 56 d3 bc
       0.09675216 0.09063896 -0.82562625 -0.025798285
000270 67 71 e9 3d 52 d1 47 be be f4 b2 3f 02 24 81 3d
       0.11398583 -0.19513443 1.3980939 0.06305696
000280 e3 c2 31 3e 56 c6 89 3d a3 68 c6 3f 84 f7 27 3e
       0.173595 0.06727283 1.5500683 0.16403013
000290 14 aa 82 3d f3 eb 28 bc 5a 35 7e bf ef 08 82 be
       0.06380096 -0.010310161 -0.9930016 -0.2539744
0002a0 70 ea 4d 3e e7 27 9d bc b8 0a bb 3f 7f 02 bb 3d
       0.20108962 -0.019184066 1.4612646 0.091313355
0002b0 70 05 b7 bd 44 0c 21 bd f4 1b b2 bf a9 83 43 be
       -0.08936584 -0.039318338 -1.3914781 -0.19093193
0002c0 bf 84 da 3d 93 b7 55 3d 04 cd dc bf 06 0f d0 bd
       0.106698506 0.052177023 -1.7250066 -0.101591155
0002d0 40 65 46 3d 13 80 56 be e7 82 c4 3f 05 34 95 3d
       0.048436403 -0.20947294 1.5352448 0.072853126
0002e0 01 da a3 3d 18 5f 11 be dd 50 af 3f 50 b1 09 3e
       0.08000565 -0.14196432 1.3696553 0.13446546
0002f0 27 f0 09 3d 20 1a 17 bc 95 ed e3 bf 68 24 01 be
       0.033676293 -0.009222537 -1.7806879 -0.12611544
000300 e1 50 37 bd 3c 2a 8f bc f0 89 75 3f 14 97 15 3e
       -0.044754867 -0.017476194 0.959136 0.14608413
000310 10 f3 17 3f 67 13 23 be f2 d5 b7 bf e9 55 c1 3f
       0.5935526 -0.1592537 -1.4362166 1.5104343
000320 6c 92 6c bd 26 79 3d bc e1 7c c4 bf b2 7b 8b be
       -0.057756826 -0.011564529 -1.535061 -0.2724281
000330 cc 4d f3 3b 9a d3 36 3e ea 86 cc bf 2d 88 b9 bd
       0.0074250456 0.17854157 -1.5978673 -0.090591766
000340 5a 93 38 be 3e e6 9b 3d dd 82 8f 3f 65 65 a0 3e
       -0.1802496 0.076122746 1.1211811 0.31327358
000350 22 ce be 3b 6e b7 d9 bc 40 6f d8 3f b7 95 86 3d
       0.005822913 -0.026576724 1.6908951 0.065715246
000360 e8 a1 41 3e 92 47 63 3b 8a ce b1 3f f4 75 18 3e
       0.18909419 0.003468011 1.3891156 0.14888746
000370 80 c0 42 bd 3b 08 5d bb 92 dc e2 bf e1 28 3e be
       -0.047546864 -0.003372683 -1.7723563 -0.18570282
000380 3f b1 36 be 4f 90 37 3e b5 6a af bf 63 23 26 bd
       -0.17841052 0.17926143 -1.3704439 -0.04056109
000390 60 50 38 bd ca b9 6b 3e ee f9 8f 3f 1b 6e d8 3e
       -0.044998527 0.23020092 1.1248147 0.42271504
0003a0 2a 8f d0 3d 95 5f 9f bd 41 b0 00 40 25 36 c8 3d
       0.101835564 -0.07781903 2.0107577 0.09775952
0003b0 85 ed 4c bd 00 88 e2 3c f4 7f af bf c3 3e 26 be
       -0.050031204 0.02765274 -1.3710923 -0.16234879
0003c0 36 ea 5f be 77 fe 42 3e 1f 5c a1 bf ea 5a 11 bd
       -0.21866688 0.19042383 -1.2606238 -0.035487093
0003d0 94 2c 6d be 09 b4 ac 3d e8 99 99 bf 77 2b 01 be
       -0.23161536 0.084327765 -1.2000093 -0.12614237
0003e0 70 de 6b be 51 ec 0f 3e 50 7a 93 bf 7f 2f f6 bd
       -0.23034072 0.14054991 -1.1521702 -0.12020778
0003f0 3b 66 a6 bd 15 82 30 3e a0 f0 f3 bf d3 96 b6 bd
       -0.08124968 0.17237122 -1.9057808 -0.08915486

module.fc1.0.bias f4 [256]
000000 7b 72 17 3f 2b f0 d1 bd 39 f3 b7 be f6 21 82 3e
       0.5915906 -0.102508865 -0.35927752 0.25416535
000010 f9 28 d2 be 9d c2 de be a8 69 81 3e c6 2e 2b 3f
       -0.41046885 -0.43507853 0.25275922 0.66868246
000020 42 5a 05 3f 4f 5e 1d 3f 7f 79 76 3e 75 63 57 3e
       0.5209085 0.6147203 0.24069785 0.21034034
000030 a6 f3 b0 bd 69 8b c7 be 1a d8 4a 3e f2 0f 66 3e
       -0.08640222 -0.3897355 0.19808999 0.2246702
000040 55 5b 0a 3f 25 c3 1d 3d b1 48 b8 be 77 aa 23 bf
       0.5404561 0.038516182 -0.3599296 -0.63931984
000050 26 88 b7 3e b2 bd 10 3f 4e af cc 3e 9d c7 de be
       0.3584606 0.5653945 0.39977497 -0.43511668
000060 5f 7c 83 bd 8f 72 b4 be f1 40 c0 3d bd aa a3 be
       -0.06420206 -0.3524365 0.093873866 -0.319662
000070 8c e9 20 3f 5a bd 03 3f 71 f1 00 3f 13 52 16 3f
       0.62856364 0.514608 0.5036841 0.58718985
000080 bb 61 af be 86 f5 98 be dc 67 8f 3e af 62 1f bf
       -0.3425425 -0.2987482 0.28008926 -0.62259954
000090 6e d8 85 3e 21 85 24 3f 6f a7 40 3e ee ca d1 bd
       0.26141685 0.6426564 0.18813871 -0.10243784
0000a0 43 7b 61 be 08 26 0b 3f 97 3f c3 3e de 14 d2 3e
       -0.22019677 0.54354906 0.38134453 0.41031545
0000b0 50 e1 e7 be e8 20 a8 3e 82 1e d3 3e fe d0 c9 be
       -0.45289087 0.32837605 0.41234213 -0.3941726
0000c0 9d 38 da be 87 ec 6e 3e 82 90 01 bf e0 d4 0f 3e
       -0.42621318 0.23332416 -0.50611126 0.14046049
0000d0 4b 65 0e 3f 8c 58 66 3e 07 91 a2 be 7e 74 cb be
       0.5562331 0.22494715 -0.31751272 -0.39737314
0000e0 5d 4f e5 bd 8a fc 0c bf 3a 3d d3 3e 90 ef f8 be
       -0.11196778 -0.55072844 0.4125765 -0.48620272
0000f0 38 b1 94 3e b9 21 98 be 8b 22 e8 be de 9e 1a 3e
       0.29041457 -0.29713228 -0.45338854 0.15099666
000100 4a 31 bb 3e 4d bb 8c 3e 72 f1 a3 be 9e 22 8b be
       0.36561042 0.2748665 -0.32020146 -0.27174848
000110 fc f8 d6 be f5 45 92 3e 87 06 88 3e 87 c3 ab be
       -0.41986835 0.28568998 0.2656748 -0.33547613
000120 17 90 dc be 38 e9 ad 3e 48 26 72 3d 26 03 0f 3f
       -0.43078682 0.33966994 0.05911854 0.5586418
000130 42 4d df 3e f5 15 0f bf 3e a8 d1 be 7d 7f a2 be
       0.4361363 -0.5589288 -0.4094867 -0.3173789
000140 c5 e7 ec 3e c5 8b dd 3e 06 a1 ee be ae f0 b7 3e
       0.46270576 0.43270698 -0.46607226 0.35925812
000150 af e9 18 3f 75 d2 a6 be 0d 35 00 3e cc 2e 79 3e
       0.5973157 -0.3258244 0.12520237 0.24334258
000160 74 43 43 3f 75 ab 2e 3f 6b eb e0 bc 8e d2 bc 3e
       0.762748 0.6823037 -0.027456006 0.3687939
000170 e5 d7 4f be 89 e4 4d 3f 79 a7 99 3e fe cd 1f 3f
       -0.20297201 0.8042684 0.30010584 0.62423694
000180 66 56 bb 3e bf 14 8d 3d 13 84 42 3f bb ba c3 bb
       0.36589354 0.06888723 0.7598278 -0.0059731877
000190 94 84 b4 b9 b4 ee 36 3e 01 d9 f4 3e 87 cf 10 3f
       -0.00034431054 0.17864496 0.4782181 0.5656666
0001a0 38 15 f9 3e 6d a6 c6 3d 10 79 03 3f 62 23 04 bf
       0.48649 0.09699712 0.513566 -0.5161649
0001b0 e3 f2 a7 3e b2 46 39 3f 59 75 a8 3e cc 51 2a 3f
       0.32802495 0.723735 0.3290203 0.6653106
0001c0 cf c2 cc 3e 85 d6 b5 be cf 49 8e 3d 48 e5 ab bc
       0.39992377 -0.35515228 0.069476716 -0.020983353
0001d0 f0 d3 ac 3e 4e d9 03 3f 07 e0 3b 3f bb a1 0e 3f
       0.33755445 0.51503456 0.73388714 0.5571553
0001e0 1c d9 2d 3b 8f ca ca 3e 47 a7 9c be 89 ff 25 bf
       0.0026527112 0.39607665 -0.30596372 -0.6484304
0001f0 ba bc 86 3e b3 53 0f 3f 16 d0 17 bf 23 01 aa 3d
       0.26315862 0.5598709 -0.5930189 0.08300998
000200 7e 82 d8 3e 70 45 0b bf 65 52 b1 be 98 e3 0c 3f
       0.42287058 -0.5440283 -0.34633175 0.5503478
000210 97 fe c8 3e 71 1b a9 3d 1a 5a c5 3e dc b3 0e 3e
       0.39256737 0.08257187 0.38545305 0.13935798
000220 ef de af 3e 83 a4 7e 3e 88 d4 c9 be 76 8e 14 bf
       0.34349772 0.24867444 -0.3941996 -0.5802988
000230 0d 62 03 3f fc fa 01 3e 73 68 47 be 56 8b 24 3f
       0.5132149 0.12693399 -0.19473438 0.6427511
000240 21 40 03 3d 36 5b 18 3f b9 0c 00 bf f4 1c 0e 3f
       0.03204358 0.59514177 -0.50019413 0.5551293
000250 c2 b6 8b 3e d6 89 d1 be 60 f1 cb be 88 88 0e 3f
       0.2728787 -0.40925473 -0.39832592 0.5567708
000260 15 b4 20 be f6 19 a9 3d d6 36 a1 be 0b 28 76 be
       -0.15693696 0.08256905 -0.3148715 -0.24038713
000270 64 3d 86 be e4 6f cc 3e d6 99 05 bf a5 cc db 3d
       -0.26218712 0.39929116 -0.5218786 0.10732392
000280 f3 29 e3 3e bb 4d 01 3f a2 7c 11 3f c7 e3 1d bf
       0.44367942 0.5050923 0.568308 -0.61675686
000290 9f 8d 0a 3f 1a 0d 53 3f 0b 15 bf be 75 6d 0a 3f
       0.54122347 0.82441866 -0.37320742 0.5407327
0002a0 f8 95 32 bf 07 58 1d 3f fe cd 88 3e 21 a9 8d bd
       -0.69760084 0.61462444 0.2671966 -0.069170244
0002b0 e0 df 66 3e 77 76 0c 3e 6c 05 52 bf 25 e4 af be
       0.22546339 0.13717066 -0.82039523 -0.34353748
0002c0 a4 fd f1 be fa e7 6e be 3d 36 a5 bd 49 95 f2 be
       -0.47263825 -0.2333068 -0.08066986 -0.4737952
0002d0 c5 da 19 3f 4e c1 18 bf 0b 09 f2 be 61 d0 57 be
       0.6009944 -0.5966996 -0.47272524 -0.21075584
0002e0 0e 97 0a bf 2b 78 7f 3e c2 b6 ec 3e db b7 97 bc
       -0.5413674 0.24948184 0.46233183 -0.018520286
0002f0 9e 89 6f 3e 86 17 1e be a5 c6 7b 3e 0c aa 01 3f
       0.2339234 -0.15438661 0.24587496 0.50650096
000300 25 ea 22 3e d5 50 4c 3e cf eb b1 3e 73 1f 8c be
       0.15909632 0.1995271 0.3475022 -0.27367744
000310 4b fc d4 3e a3 be 27 3e 22 f9 0e 3f c9 cb 83 3e
       0.41598734 0.16381316 0.55848897 0.25741413
000320 0c f4 82 be dc b2 16 3f 82 93 f5 bb 51 e6 96 be
       -0.25576818 0.5886667 -0.007494391 -0.29472592
000330 b6 bb e9 3e a6 c4 fa 3e f9 f7 15 3d ac 84 89 3e
       0.45651025 0.48978156 0.03661344 0.26859033
000340 18 ac e8 3d 77 ed 00 3f 2c 77 1c bf f5 a6 30 be
       0.11360949 0.5036234 -0.6111934 -0.17251189
000350 7c 3e 3a bf 25 aa a0 3e 92 3c a2 3c 03 ad 7f be
       -0.72751594 0.3137981 0.019804273 -0.24968342
000360 d4 9d ba 3e 8a 2c 79 3e 13 6b 0d 3f 86 13 89 3f
       0.36448538 0.24333397 0.5524151 1.0709083
000370 8e ea 1a 3f f0 b2 0a bf 4d a5 c6 be bd 03 eb be
       0.6051415 -0.54179287 -0.3879799 -0.4590129
000380 14 81 20 3e ed df ef be f5 34 fa 3e 33 3e a5 be
       0.1567424 -0.4685053 0.48868528 -0.32274017
000390 50 00 a9 be f4 ee bf 3e 66 4b 0a 3f 52 62 d0 3e
       -0.3300805 0.37486994 0.540213 0.40700012
0003a0 c9 a3 24 bf cc 87 ef be 04 98 ce 3e 4e 8a f4 3e
       -0.64312416 -0.46783292 0.40350354 0.47761768
0003b0 25 9d e5 be 84 90 8c be 53 a3 da 3e f4 dc 06 be
       -0.44846454 -0.27454007 0.42702731 -0.13170224
0003c0 a8 e4 c7 3e 75 df 1e 3f 65 57 fa be e0 ea 0e 3f
       0.39041638 0.6205972 -0.48894802 0.5582714
0003d0 71 78 a9 be 43 14 05 3f 05 34 0a bf cd dc 56 bf
       -0.33099702 0.5198404 -0.53985626 -0.83930665
0003e0 9d 8b dd 3e 96 70 81 bc f5 a8 09 3f 2d 97 f0 3e
       0.4327058 -0.015800755 0.5377343 0.46990338
0003f0 c8 a0 31 3f 2d be e7 3e 9f 68 34 3c 85 99 b0 3e
       0.6938596 0.4526228 0.011011272 0.34492126

module.fc2.0.weight f4 [64, 256]
000000 05 99 be bd 87 fa f9 3e 71 2c dc bd 95 86 9b bf
       -0.0930653 0.4882395 -0.10750664 -1.2150446
000010 61 66 ce 3f f1 67 f5 3f a5 a0 38 bf 00 60 bf be
       1.6124994 1.9172345 -0.72120124 -0.3737793
000020 6b 40 96 bf ca 7f a6 bd 6b e6 4e 3e ea 3a bb bf
       -1.1738409 -0.081298426 0.20205085 -1.4627354
000030 31 46 0a bf 19 7c be 3f 6c 49 0d 3f 0e 70 79 3e
       -0.54013354 1.4881622 0.5519016 0.24359152
000040 88 d3 c3 bf 71 47 51 3a 75 c3 9b be cf 81 8a 3e
       -1.5298929 0.0007983363 -0.3042256 0.2705216
000050 08 74 ad bf 13 26 91 3d 3d dc c7 be df 3b 66 40
       -1.3551035 0.0708734 -0.39035216 3.5974042
000060 5d b6 ef be a6 9b 5d be e2 4b 8d be dc 88 33 3f
       -0.4681882 -0.21641406 -0.27596956 0.70130706
000070 9b b5 8a bd 0c ca 30 3e 1d cb 93 bf b6 7b ee bf
       -0.0677292 0.17264575 -1.154636 -1.8631504
000080 38 da 85 be 63 99 12 3f 4f 66 52 be 36 fd b8 bd
       -0.2614305 0.572653 -0.2054684 -0.09032671
000090 32 52 68 3d 31 9b 2b 3e 64 51 a3 3e e0 63 b1 be
       0.056719013 0.1675842 0.31898034 -0.3464651
0000a0 83 1b f4 be 50 4c 4b 3e 71 33 9c be 8c 13 85 3d
       -0.4767724 0.1985333 -0.30507997 0.06497869
0000b0 35 e0 b3 3f d7 cb 59 bf 05 63 5c bf b2 97 45 40
       1.4052798 -0.8507666 -0.8608859 3.0873837
0000c0 dc e3 ac be ff 0e b7 3f 38 28 f1 3f 62 d3 e3 3e
       -0.33767593 1.4301451 1.8840399 0.4449721
0000d0 92 02 c4 bf 73 df 4c bf b1 d0 ff be 58 88 e7 3f
       -1.5313284 -0.80028456 -0.49963906 1.8088484
0000e0 4d 27 c8 3e 80 80 38 bc e9 58 1c c0 0d 84 db 3f
       0.39092484 -0.011261106 -2.4429266 1.7149674
0000f0 8a cc 1b 3e ae b4 2c 3f 8e 44 d1 3e 13 00 22 3f
       0.15214744 0.67463195 0.40872616 0.63281363
000100 a1 ee 52 be 87 e6 81 bd 1c 32 c7 3f d6 c7 c3 bc
       -0.20598842 -0.06342798 1.5562167 -0.023899
000110 42 43 3d 40 02 c7 81 bf 11 44 fa bd 04 53 f6 3d
       2.95723 -1.0138857 -0.12220014 0.12027553
000120 d6 a0 15 3f 98 fe 79 3e b9 b8 45 bd 4e e1 10 bf
       0.5844854 0.24413526 -0.04827187 -0.5659379
000130 e2 c2 a9 bd e2 9f 85 40 74 54 bb 3e 64 06 76 3f
       -0.08289124 4.175767 0.3658787 0.961035
000140 6a d1 96 3e 21 3a 71 3e 30 70 1b 40 b6 fd 91 bf
       0.29456645 0.2355733 2.4287224 -1.1405551
000150 b3 c9 14 bf 06 39 45 3f 29 9d ba 3e d7 38 9e 3e
       -0.5812027 0.77040136 0.3644803 0.3090274
000160 9a 2d ec 3d 61 4e 1f be b8 37 ed be f4 16 cb 3e
       0.11532135 -0.15557243 -0.46331573 0.3966595
000170 fe 26 d1 be 54 49 af be 3d b1 b8 bc b5 7f c4 3c
       -0.4085006 -0.34235632 -0.022545451 0.023986677
000180 52 b1 1d be 4d 6b 49 3d 27 fc 67 3e dd 50 6b bf
       -0.15399674 0.049174596 0.22654782 -0.9192026
000190 7e a9 36 3f 97 06 37 be a6 ae a1 bf 3d 42 ef bd
       0.71352375 -0.17873608 -1.2631423 -0.11682556
0001a0 70 80 ad bf c2 5d d5 be 0a 89 b3 3d 8e 9c ad 3f
       -1.3554821 -0.41673094 0.087663725 1.3563402
0001b0 80 e4 d3 bf ea 9c 8f be 2b 14 fc bd 7a 16 b2 bf
       -1.6554108 -0.28049403 -0.12308534 -1.3913109
0001c0 96 95 d5 3d ca a9 4e 3f ed 17 86 bf 7c 84 32 bf
       0.10428922 0.8072783 -1.0476052 -0.69733405
0001d0 cb ce 0f bd b9 c6 89 bd 72 6c a8 bd 1e d1 69 3d
       -0.035109323 -0.067273565 -0.08223809 0.057084195
0001e0 02 e4 05 3e 03 34 38 bf 0a 73 ba 3e fc f0 93 3e
       0.1307526 -0.71954364 0.36415893 0.28894794
0001f0 76 74 01 bf b3 d9 3a bd be aa f2 3e 0b 73 8a 3f
       -0.5056833 -0.04561777 0.4739589 1.0816358
000200 35 1b 32 bf 89 b4 30 3f d4 90 c9 bd fa d8 83 3e
       -0.69572765 0.69025475 -0.09842077 0.25751477
000210 68 ce 40 3e d8 f0 1d bd 62 98 cf bf 53 a8 c6 be
       0.18828738 -0.038559765 -1.6218379 -0.38800296
000220 6f c3 89 bf cf 52 08 bf 63 1c 45 be 03 99 83 3e
       -1.0762767 -0.53251356 -0.1924911 0.25702676
000230 71 9f d9 bf 5c 2f 1a 3f f1 1b e3 3e b2 94 a4 bd
       -1.7001783 0.60228515 0.44357255 -0.08036174
000240 da 51 04 3f 2b 29 a2 bf 2f 5b df 3f 79 87 07 c0
       0.51687396 -1.2668813 1.7449702 -2.1176436
000250 64 06 16 bf 74 98 ca 3f ee b8 c2 be 9e 5a b8 bf
       -0.586035 1.5827775 -0.38031715 -1.4402654
000260 22 2f 30 bf 9a fa 91 bd ea c0 c7 3f 7d 3c 2e 3d
       -0.6882192 -0.071278766 1.5605748 0.042538155
000270 9e 3b ca bd f0 c4 12 3e c8 0e 93 bd 91 0a 80 3e
       -0.09874652 0.14332938 -0.07180554 0.25008062
000280 37 ff 2d 3e cd f5 46 bf d9 67 d2 bf 09 02 0c 40
       0.16991888 -0.7771881 -1.6437942 2.1876242
000290 40 3c 51 bf c7 3f 60 3d 62 98 49 3e 46 08 1d 3e
       -0.8173256 0.054748323 0.19687036 0.15335187
0002a0 28 0f 6c be d4 c2 85 bf 61 52 fe 3e db 5c 82 3e
       -0.23052657 -1.0450082 0.49672225 0.25461468
0002b0 e5 4b 4e bf 65 b6 70 be f9 6c c6 3f b1 fa af be
       -0.80584556 -0.23507078 1.5502006 -0.3437095
0002c0 ce c3 f3 3f a0 a0 86 be 03 f1 d0 be 48 4c ed 3e
       1.904413 -0.26294422 -0.40808877 0.4634726
0002d0 ad 0e 76 3c 9b ae f8 3d 27 e5 76 bc a1 ed 73 be
       0.015018147 0.12142678 -0.015069283 -0.23821117
0002e0 90 3c b2 3f ae 76 a0 3e 61 7d ae 3d 94 0a 3d be
       1.3924732 0.31340545 0.08520008 -0.18461066
0002f0 67 9d 45 3e 35 76 d6 be 31 22 a3 bf 7f e5 c6 bf
       0.19298325 -0.4188706 -1.2744809 -1.5538787
000300 af 6b b5 3e c5 fe 59 bf 97 45 4f 3e b7 ef 91 be
       0.3543372 -0.8515437 0.2024139 -0.285032
000310 2d f4 69 3e a1 23 c6 3e 61 f7 2e bf 1a 52 8d bf
       0.22847052 0.38699058 -0.6834622 -1.104068
000320 26 dc 2b bd f3 c1 c8 3d 34 5f 1c 3f 35 e2 95 3f
       -0.041957997 0.09802618 0.6108277 1.1709658
000330 c6 d9 a4 3e 22 7e 92 bd 43 d8 df be ab 85 36 bf
       0.32197398 -0.07152964 -0.43719682 -0.7129771
000340 8a 12 5a 3e a2 a5 e7 bd 4d 08 74 3e fa 1e 6d 3f
       0.21296135 -0.11310889 0.23831291 0.9262539
000350 e0 51 70 bd ce 2b 64 3e 6d 59 52 be ed f4 25 bd
       -0.058671832 0.22282335 -0.20541926 -0.040516783
000360 89 55 79 be 82 1f 89 bf 4f d9 6a be 1d a0 b3 3e
       -0.24349035 -1.071274 -0.22934459 0.35083094
000370 0e 59 66 bf 05 2d 8d 3e 5c 77 8f 40 a2 a4 53 40
       -0.89979637 0.2757341 4.48332 3.3069234
000380 14 cc e4 bd 03 ef 63 be ee 82 34 be f5 10 82 be
       -0.11171737 -0.22259144 -0.1762807 -0.25403562
000390 89 22 8f be 77 ba 23 bf 7b a6 aa bd 38 1c b4 3e
       -0.27956036 -0.639564 -0.08332535 0.3517778
0003a0 7d 5e b5 bd 2a ca 57 3f b8 61 2b be 33 59 07 c0
       -0.08855913 0.8429285 -0.16736495 -2.1148193
0003b0 3d 4a cf be 68 0c 05 3f bb 83 fb bf 88 55 fe be
       -0.40486327 0.51972055 -1.9649576 -0.4967463
0003c0 8c c0 36 be 04 84 dd bf f2 87 9f 3f 65 b6 83 bf
       -0.17846888 -1.7305913 1.2463362 -1.0290037
0003d0 e9 fb 63 be cf b9 eb bf 2e 65 bf bd aa c2 ba 3c
       -0.22264065 -1.8416079 -0.0934547 0.022797901
0003e0 a1 4d 07 c0 e3 82 ce be b6 b1 da bf 59 9b b6 be
       -2.114113 -0.40334234 -1.7085483 -0.35665396
0003f0 2f c6 a3 3d 79 e9 0d bf 5b ab ee be d0 fd 96 3e
       0.07996785 -0.55434376 -0.4661511 0.2949052

module.fc2.0.bias f4 [64]
000000 74 c9 9f be cd 6d ca 3e b2 5d 54 3c 2b 53 be bd
       -0.31208384 0.39536896 0.012961792 -0.09293207
000010 1a 86 70 3e c2 45 1f 3f 72 3d 55 be 16 89 49 be
       0.23488656 0.62215817 -0.20824221 -0.196812
000020 7a 38 66 be 39 84 7f 3e e1 03 ea 3d 70 ca 8a be
       -0.22482482 0.24952783 0.11426521 -0.27107573
000030 49 6e e9 3b df a0 3f 3e c0 8e 35 3d cd fe 93 be
       0.0071237427 0.18713711 0.04432559 -0.28905335
000040 e6 3e 64 be f4 d5 d3 be f0 f0 0c 3e a6 49 53 bc
       -0.22289619 -0.4137417 0.13763785 -0.012895977
000050 d6 f1 6b be d5 f2 86 3d 78 83 54 bc 8f 21 57 3e
       -0.23041472 0.06589285 -0.012970798 0.21008895
000060 1c 56 51 bd 50 a9 6d be 75 99 d0 3d 0a b2 0d 3e
       -0.05110751 -0.23209119 0.101855196 0.13837448
000070 13 8f 12 3d 01 32 8f 3e 15 17 ca 3e de 76 3b be
       0.035780977 0.27967837 0.39470735 -0.18307063
000080 a0 a0 91 3e b4 d8 86 be 10 db 12 bd e4 bc 62 3c
       0.2844286 -0.26337206 -0.035853446 0.01383898
000090 a0 6c fb bd ac 6f a7 bd 55 89 41 be 48 16 5d be
       -0.12276578 -0.081755966 -0.18900044 -0.21590531
0000a0 b8 57 26 3d c3 85 70 3b c5 cc 38 be 11 47 95 3e
       0.040611 0.0036700822 -0.18046863 0.29155782
0000b0 a4 63 5c 3e 0d c4 ef 3d bf ba c0 3e a2 9c 4b 3e
       0.21522385 0.117073156 0.37642476 0.1988397
0000c0 d4 e4 80 be 98 24 be 3c 3b 73 78 bd e3 0a 26 bd
       -0.25174582 0.023210809 -0.060656767 -0.040537726
0000d0 69 e3 e1 be 93 28 3c 3d a4 8e aa 3e ed 5d a0 3d
       -0.44118813 0.045937132 0.3331195 0.07830415
0000e0 25 06 36 3e d2 7a a2 be a1 4a 49 be 72 d4 be 3e
       0.17775781 -0.3173433 -0.19657375 0.37271458
0000f0 e6 39 54 3e 2e 10 b9 be b8 b7 1f be e3 7a b7 be
       0.20725212 -0.36145157 -0.15597427 -0.35835943

module.output_layer.0.weight f4 [2, 64]
000000 cb c6 74 c0 cd 9f fc 3f 6b 27 b0 bd 25 64 93 3e
       -3.8246334 1.9736267 -0.086012684 0.28787342
000010 2f cb ed 3f 6a 2f 63 3f 59 fe 95 3f b0 d9 68 c0
       1.8577632 0.88744223 1.1718246 -3.6382866
000020 7c 1a 2a c0 40 16 36 40 db 46 8b 3e 37 2f 91 bf
       -2.6578665 2.845108 0.27202496 -1.1342534
000030 e6 40 b0 40 05 9f 98 3f 30 20 50 3d c0 c1 a8 c0
       5.507922 1.1923529 0.050811946 -5.273651
000040 39 8b 10 3c b6 6a 3f 3f 4f 36 a6 3c e6 b0 c7 40
       0.008822256 0.747722 0.020289568 6.240344
000050 3b 4c 4f c0 81 d8 bc 3c 4b 05 16 3e 27 4c db be
       -3.2390277 0.023052456 0.14650457 -0.42831537
000060 a4 a4 0b 3d cd 8a 17 c0 e8 a4 14 3f d3 34 ca 40
       0.03409256 -2.3678467 0.58064127 6.3189483
000070 8f 14 ae bf 9e 46 0d 40 06 55 b7 3b cf f1 bf 40
       -1.3600024 2.2074351 0.0055948524 5.9982677
000080 4c 0a 02 40 16 3c 70 c0 5d ad 13 bf 59 43 86 40
       2.0318785 -3.7536674 -0.57686406 4.195721
000090 76 64 16 be ba 59 96 3f ac d7 f2 bf be 34 ab bf
       -0.1468676 1.1746132 -1.8972068 -1.3375471
0000a0 0f e4 09 3c 09 87 00 be c6 5f 4a c0 d1 ca d4 bf
       0.00841619 -0.12551512 -3.1620955 -1.6624395
0000b0 01 60 b3 3f 26 9a 60 bf 87 f1 9f 3f f7 62 d3 3f
       1.4013673 -0.8773521 1.2495583 1.6514577
0000c0 80 59 23 c0 74 8e ce 3f 8a af 28 bf 81 28 80 3f
       -2.5523376 1.6137223 -0.6589285 1.0012361
0000d0 cf 35 4b bf 44 4e 16 40 36 a0 76 40 63 73 f0 3f
       -0.7937898 2.348527 3.8535285 1.8785213
0000e0 c2 2a 1e bf 8f c3 ae bd f0 57 3c bf 18 c5 6c 3f
       -0.61783993 -0.085333936 -0.7357168 0.9248824
0000f0 62 06 53 bc ef cb 09 bf 4d 55 8c bf 1d 3a a3 bf
       -0.01287994 -0.538268 -1.0963532 -1.275211
000100 96 90 d5 bd bb 2b a7 40 a4 40 28 c0 f4 17 63 bf
       -0.10427968 5.224088 -2.6289454 -0.88708425
000110 ad 25 94 bf 24 48 8c bd b9 1d 05 3f 2f 61 95 be
       -1.1573998 -0.06849697 0.5199848 -0.29175708
000120 90 e3 08 3e c0 df 3b bd 24 2c 97 40 b6 93 06 bf
       0.13368058 -0.04586768 4.7241383 -0.5256914
000130 95 a0 8d 3d bd a2 8c 40 a9 57 ae c0 d1 d7 11 bf
       0.06915394 4.3948655 -5.4482007 -0.56969935
000140 9b fe 84 40 1f cc 07 bf a4 4c ab c0 65 23 1a 3d
       4.15608 -0.5304584 -5.3531055 0.03763141
000150 4c f2 cc bd 00 28 ac c0 02 bd 8f c0 66 8e a6 bf
       -0.10007152 -5.379883 -4.4918222 -1.3012207
000160 87 4a cc be c9 aa b3 bd fa 3d 3f 3f 61 7c 86 bd
       -0.3990061 -0.08772809 0.74703944 -0.06566692
000170 7e 5a 44 3f c4 d4 66 be 44 56 68 3f fa c4 8d bd
       0.7670058 -0.22542101 0.9075663 -0.06922336
000180 93 2f 30 3f 47 48 dc 3e 13 d5 de be eb fd 2f bc
       0.6882259 0.43023893 -0.43521938 -0.010741691
000190 3a 8c 5f be ef 73 6c 3f b8 20 d6 3d 52 53 ad c0
       -0.21830836 0.923644 0.10455459 -5.416421
0001a0 d2 c8 c1 c0 30 ba ab c0 59 75 3f be ca 83 5f bf
       -6.055764 -5.366478 -0.18697108 -0.8731047
0001b0 a3 b3 82 be 2f c8 ba bf aa 2d 6a 3f cb 13 fe bd
       -0.25527677 -1.4592341 0.9147593 -0.12406119
0001c0 dc 6a e8 3b 3f 70 ea 3f 2e 34 98 3f aa 0f 3c 40
       0.0070928168 1.8315505 1.1890924 2.938456
0001d0 0d a9 61 3e 91 75 43 bf d2 95 0e 3e 99 4f 5d 40
       0.22037144 -0.7635127 0.1392434 3.4579833
0001e0 2c 5d 88 bf ea ab 3e 40 4c ad 60 3e 74 2e ad 40
       -1.0653434 2.9792428 0.21941108 5.4119205
0001f0 5f 28 95 c0 6e cf e3 be 3c 52 d5 bb 8b 42 d7 c0
       -4.661178 -0.44494194 -0.0065100472 -6.726873

module.output_layer.0.bias f4 [2]
000000 6e 01 10 3d fa 29 94 be
       0.035157613 -0.28938276
